rnn/rnn3h_1.5.pth (torch, 14179 bytes, 11 tensors)

weight_ih_l0 f4 [20, 5]
-0.005848996 0.036491334 -0.017317152 -0.080809966 0.09555589 -0.5746747 -0.11002142 0.082065836
-0.0043608635 0.009711594 -0.02875966 -0.017565502 -0.071371384 0.052960522 -0.018832238 -0.03205418
0.0331068 -0.06342507 0.044863287 -0.06906444 -0.040390257 -0.019879268 0.06952259 -0.006182737
-0.103402406 -0.054493293 0.1921717 -0.13542083 -0.03440945 0.061840355 0.013953432 0.1011317
-0.12209618 0.14213216 -0.14519398 -0.02648727 -0.04947889 0.07049254 -0.01943274 -0.029532097
-0.08385678 0.07030829 -0.08484691 0.05784222 -0.04663613 0.0418798 0.11557573 -0.07313428
0.03945926 -0.067078255 0.018158631 0.08934224 -0.13179614 -0.04691894 0.0006501853 -0.021789026
0.01330517 -0.04180108 0.069857106 -0.08892879 -0.020758292 0.060719606 -0.09193618 0.043208286
-0.024611244 0.0028931957 0.108528875 -0.105393395 0.020075485 -0.18619688 -0.1053129 0.08958664
-0.087094456 -0.009587856 -0.042696763 -0.16378866 0.13349307 -0.11397269 0.22962277 0.023878658
0.00552173 -0.014296134 -0.024777379 0.028190726 -0.06861585 0.04578649 0.08323758 -0.096470736
-0.03735971 0.12173632 0.0129186595 -0.10734305 0.09969527 -0.034073815 0.010078904 0.4198223
0.011507977 -0.023726236 0.105412655 -0.0054670563
00000000: efa8 bfbb f077 153d b3dc 8dbc b27f a5bd
00000010: ceb2 c33d e21d 13bf e952 e1bd 2212 a83d
00000020: 93e5 8ebb 611d 1f3c 6199 ebbc 87e5 8fbc
00000030: 292b 92bd 22ed 583d 1146 9abc 3e4b 03bd
00000040: ff9a 073d 01e5 81bd 91c2 373d a871 8dbd
00000050: 4170 25bd d9d9 a2bc dc61 8e3d 8f98 cabb
00000060: a4c4 d3bd 5c34 5fbd a8c8 443e c2ab 0abe
00000070: ecf0 0cbd 504c 7d3d f09c 643c 231e cf3d
00000080: 900d fabd 188b 113e bbad 14be d5fb d8bc
00000090: 60aa 4abd 655e 903d 6931 9fbc 4ced f1bc
000000a0: 1abd abbd cbfd 8f3d 37c4 adbd f7eb 6c3d
000000b0: 8705 3fbd 278a 2b3d f8b2 ec3d 6dc7 95bd
000000c0: 08a0 213d 5360 89bd 69c1 943c 10f9 b63d
000000d0: 91f5 06be 132e 40bd 3271 2a3a e67e b2bc
000000e0: eefd 593c 9c37 2bbd 3e11 8f3d 4c20 b6bd
000000f0: 4b0d aabc 1fb5 783d 0949 bcbd 2cfb 303d
00000100: 859d c9bc c59b 3d3b 6344 de3d 7ed8 d7bd
00000110: 5875 a43c 65aa 3ebe 4aae d7bd 3379 b73d
00000120: 945e b2bd 6216 1dbc cde2 2ebd 37b8 27be
00000130: 68b2 083e 846a e9bd 3b22 6b3e 2d9d c33c
00000140: a1ef b43b 553a 6abc eef9 cabc 3df0 e63c
00000150: 7786 8cbd 9d8a 3b3d 7778 aa3d 7392 c5bd
00000160: 7f06 19bd e450 f93d c9a8 533c acd6 dbbd
00000170: 092d cc3d fc90 0bbd fd21 253c f3f2 d63e
00000180: f48b 3c3c 865d c2bc 97e2 d73d fe24 b3bb

weight_hh_l0 f4 [20, 20]
-0.28805238 0.023874812 0.1892025 0.06566793 -0.010334457 -0.11141231 -0.21039276 -0.08713319
0.090128414 -0.18496306 -0.011478074 0.058638178 0.05547506 -0.039444286 -0.17952816 0.099127054
0.10623795 -0.06400093 -0.05398436 0.0010096054 0.22928253 0.51569957 0.12935752 0.13804561
0.03792419 0.27755097 -0.1649437 0.2796504 0.020316368 -0.23673394 -0.15073764 0.10130175
0.01885304 -0.14165017 0.17465365 0.22169407 -0.09683377 -0.11279636 -0.10301719 -0.5576748
0.011552777 0.038391206 -0.085738555 0.08744677 0.0014789065 0.2351021 -0.33388758 0.20377252
0.2894388 -0.14085734 -0.08582551 -0.030999482 0.15777422 0.27568337 -0.08766995 0.14206173
-0.022731848 -0.20241715 0.20524445 0.085107885 -0.20892605 -0.06894767 0.08820825 -0.31771746
-0.038443975 0.07097413 -0.07897632 -0.039959893 0.094876 -0.0027242692 -0.060980648 -0.10239644
0.13358007 0.1575227 0.11207805 -0.049482446 0.051554136 0.13248125 0.19698852 -0.2023117
0.06869672 -0.13604382 0.14460272 -0.07692373 0.03718853 0.18565838 0.0064111995 -0.013597908
0.056796007 0.01651939 -0.0016699755 0.22235222 -0.20154889 -0.116138116 0.3273738 0.15751863
0.14125581 -0.100807965 0.021875829 -0.059876792 0.08884427 -0.04883408 -0.12250718 -0.05247424
-0.017049942 -0.2681355 0.08447645 0.092751436 0.11214387 -0.02704275 -0.038990226 -0.012021812
0.033627752 -0.18055847 0.2643956 0.14572966 -0.10627153 -0.10691536 0.06239425 0.03550032
0.2462449 -0.0037128776 0.22720976 0.034592662 -0.00079887075 0.08515336 -0.28173822 0.027440535
0.2729601 -0.0952843 0.08013442 0.036573503 0.04259453 0.08114209 -0.00016679821 -0.026048617
-0.06709083 -0.13082276 -0.124106176 0.14914037 0.14022323 0.07118861 -0.053732175 0.16087373
0.31152955 -0.015042809 -0.20075263 -0.31336355 -0.058592614 -0.08783178 0.0976939 0.15916862
-0.027408795 -0.01939038 0.16161904 -0.030284358 0.028956968 0.16252752 -0.24511205 -0.08621823
-0.056105953 0.24620111 -0.18858002 -0.07934621 -0.13500571 -0.25939202 -0.17732191 0.11722043
0.064348795 -0.006025595 -0.01724959 -0.21576773 -0.09756425 0.014334524 -0.047697358 -0.08052762
0.0900655 0.13935912 -0.15228401 -0.08141333 0.11155298 0.14731409 -0.2528809 -0.24738225
-0.19105919 -0.17756118 0.19433153 -0.101405315 0.00052997237 -0.40809938 -0.09058439 -0.07639581
0.18769506 0.11671307 -0.15918657 -0.17146501 -0.08856725 0.096731044 -0.11297001 0.03234815
-0.12104944 -0.034643076 0.017922578 0.071445666 0.009625985 -0.20140228 -0.16071902 0.039975874
-0.29264575 0.08374769 -0.32338145 0.0646772 0.051315892 -0.17660531 -0.09287794 -0.03285714
-0.07333309 0.02420498 0.13478456 -0.009765851 -0.088388644 0.04237313 0.08041281 0.11237403
-0.01327983 0.13217628 0.07028914 -0.22812404 -0.18465915 0.10409532 -0.1621377 -0.3356554
-0.012175615 -0.058605876 -0.2127368 0.23051023 -0.11341656 -0.032872632 -0.042161655 0.020676509
0.058923643 -0.17190287 0.2110258 0.0059354054 -0.011946219 -0.1480339 0.21384747 -0.15246144
0.16223818 -0.15955009 0.06939137 0.011979666 -0.17775689 0.03140198 -0.02329572 -0.13812828
00000000: 9a7b 93be 1c95 c33c 4dbe 413e e87c 863d
00000010: db51 29bc 232c e4bd 3371 57be e372 b2bd
00000020: 3f95 b83d f566 3dbe 880e 3cbc 962e 703d
00000030: d139 633d 5590 21bd 3bd6 37be 2003 cb3d
00000040: 4893 d93d eb12 83bd b41e 5dbd bc54 843a
00000050: 0ac9 6a3e e304 043f 4c76 043e d45b 0d3e
00000060: 6556 1b3d 291b 8e3e 00e7 28be 562e 8f3e
00000070: 836e a63c 626a 72be f85a 1abe 4b77 cf3d
00000080: b171 9a3c be0c 11be 68d8 323e c503 633e
00000090: c950 c6bd c701 e7bd adfa d2bd c7c3 0ebf
000000a0: dc47 3d3c 1940 1d3d b297 afbd 4b17 b33d
000000b0: ded7 c13a 9bbe 703e 50f3 aabe bea9 503e
000000c0: 5331 943e e83c 10be 49c5 afbd a0f2 fdbc
000000d0: 918f 213e 5f26 8d3e 4e8c b3bd a178 113e
000000e0: 2438 babc 7146 4fbe 9a2b 523e 0b4d ae3d
000000f0: b6f0 55be 7034 8dbd 87a6 b43d ddab a2be
00000100: 6e77 1dbd e25a 913d 56be a1bd fcac 23bd
00000110: 594e c23d a789 32bb d8c6 79bd 3ab5 d1bd
00000120: 37c9 083e a14d 213e 2d89 e53d 1bae 4abd
00000130: 6e2a 533d 2aa9 073e 5cb7 493e cc2a 4fbe
00000140: deb0 8c3d 124f 0bbe bc12 143e 308a 9dbd
00000150: 0053 183d 3b1d 3e3e 0a15 d23b c3c9 5ebc
00000160: eea2 683d ac53 873c 14e3 daba 4db0 633e
00000170: d562 4ebe d2d9 edbd 8a9d a73e 904c 213e
00000180: 5da5 103e 6874 cebd f034 b33c 5e41 75bd
00000190: fcf3 b53d 3f06 48bd 0be5 fabd 3bef 56bd
000001a0: 52ac 8bbc 0e49 89be fd01 ad3d 77f4 bd3d
000001b0: afab e53d c288 ddbc 37b4 1fbd 22f7 44bc
000001c0: 41bd 093d 52e4 38be dc5e 873e 283a 153e
000001d0: e3a4 d9bd 71f6 dabd 1d91 7f3d c968 113d
000001e0: a027 7c3e c053 73bb ada9 683e 09b1 0d3d
000001f0: 4f6b 51ba e364 ae3d fe3f 90be f9ca e03c
00000200: 6dc1 8b3e 6a24 c3bd 841d a43d 19ce 153d
00000210: 9a77 2e3d d32d a63d 8ee6 2eb9 e963 d5bc
00000220: eb66 89bd 67f6 05be 612b febd 41b8 183e
00000230: ae96 0f3e 55cb 913d 4516 5cbd 15bc 243e
00000240: cd80 9f3e 1d76 76bc 1992 4dbe 3071 a0be
00000250: cffe 6fbd 26e1 b3bd bd13 c83d 19fd 223e
00000260: 6988 e0bc 93d8 9ebc 767f 253e e716 f8bc
00000270: 2a37 ed3c 9d6d 263e a7fe 7abe 2f93 b0bd
00000280: 5bcf 65bd 251c 7c3e 1f1b 41be 4480 a2bd
00000290: f03e 0abe 08cf 84be e093 35be 4411 f03d
000002a0: 4dc9 833d 5b72 c5bb 034f 8dbc 37f2 5cbe
000002b0: c4cf c7bd 5adb 6a3c 4e5e 43bd aaeb a4bd
000002c0: 4374 b83d 28b4 0e3e 57f0 1bbe 08bc a6bd
000002d0: e475 e43d 81d9 163e 9b79 81be c651 7dbe
000002e0: 05a5 43be 99d2 35be d8fe 463e 97ad cfbd
000002f0: d8ed 0a3a 67f2 d0be 4f84 b9bd 6875 9cbd
00000300: 2233 403e 4307 ef3d ce01 23be 8694 2fbe
00000310: bf62 b5bd ed1a c63d d25c e7bd 7e7f 043d
00000320: c5e8 f7bd e6e5 0dbd 5fd2 923c 1b52 923d
00000330: 4fb6 1d3c 663c 4ebe 8793 24be bebd 233d
00000340: aad5 95be e983 ab3d 4192 a5be 7b75 843d
00000350: 9d30 523d 06d8 34be ca36 bebd 3595 06bd
00000360: a92f 96bd 8649 c63c f704 0a3e f300 20bc
00000370: 1b05 b5bd 728f 2d3d 79af a43d 5b24 e63d
00000380: a593 59bc 3859 073e c1f3 8f3d 5999 69be
00000390: 4a17 3dbe ed2f d53d 6d07 26be 06db abbe
000003a0: 3b7c 47bc b70c 70bd add7 59be e00a 6c3e
000003b0: f146 e8bd 74a5 06bd b3b1 2cbd c861 a93c
000003c0: eb59 713d 4e07 30be 2617 583e ca7d c23b
000003d0: 13ba 43bc 3396 17be d5fa 5a3e da1e 1cbe
000003e0: c421 263e 1961 23be 101d 8e3d 5c46 443c
000003f0: e705 36be 5d9f 003d aad6 bebc 8071 0dbe

bias_ih_l0 f4 [20]
-0.10701839 -0.029733168 0.039140172 -0.009373474 -0.06187994 -0.096693695 0.011060188 0.16424261
0.06614253 0.12912527 0.046184253 0.1504388 -0.09283253 0.06481159 -0.023023022 0.21269648
-0.08470773 -0.018814411 -0.11287136 0.012413547
00000000: 752c dbbd f992 f3bc 7251 203d 3393 19bc
00000010: d275 7dbd 5807 c6bd ca35 353c 372f 283e
00000020: bc75 873d 6a39 043e b32b 3d3d a10c 1a3e
00000030: fb1e bebd f0bb 843d c79a bcbc 1bcd 593e
00000040: 3f7b adbd ae20 9abc 1929 e7bd 3162 4b3c

bias_hh_l0 f4 [20]
0.09445091 0.032030422 -0.098069236 -0.01899516 0.055280227 0.1806519 -0.04668963 -0.14860882
-0.011142685 -0.13073932 -0.05182239 -0.1458293 0.09736491 -0.056658022 0.056091335 -0.10931928
0.10666727 0.008343583 0.0983937 0.03304496
00000000: 7b6f c13d 5532 033d 86d8 c8bd bd9b 9bbc
00000010: 856d 623d d0fc 383e a03d 3fbd e92c 18be
00000020: cf8f 36bc 87e0 05be b743 54bd 4754 15be
00000030: 4167 c73d 3e12 68bd 07c0 653d c9e2 dfbd
00000040: 5f74 da3d 86b3 083c a382 c93d 275a 073d

weight_ih_l1 f4 [20, 20]
0.078974105 0.051569052 0.036928516 -0.05580471 -0.10759819 -0.020807838 -0.009247858 -0.09655898
-0.1511462 0.0998554 -0.06704402 0.0653313 -0.07439665 -0.11602079 -0.17658529 0.09040278
0.042130265 0.104439884 0.025704999 -0.088828556 -0.0012927076 -0.07621724 0.11530937 -0.046302527
-0.10899241 -0.01822666 -0.044763643 -0.0014612835 -0.047463007 -0.06633412 -0.045408983 0.118737675
-0.14273685 0.09251477 0.11700562 0.0062633934 0.0012003859 0.045912728 -0.0447723 -0.07488688
0.042634934 0.02264748 -0.042050928 -0.015669402 -0.14279404 0.105226286 0.031096864 0.08198853
0.04641311 0.04198384 0.0867209 0.07613795 0.032728292 -0.008791334 -0.0026813464 -0.009957001
-0.021803737 -0.06933188 -0.093511604 0.067095995 -0.13343227 0.06646281 0.069224074 -0.074622996
-0.036169227 0.05880862 -0.014811279 0.06661249 -0.031003743 -0.1561359 0.019292021 -0.004340356
-0.06298262 -0.06885191 -0.0042556594 -0.021495914 -0.04090332 -0.03432388 0.09976321 0.018457491
0.13551833 -0.0050098756 0.041311324 -0.112515785 -0.03989234 -0.05432133 0.008105171 0.010619263
-0.035028763 0.008992946 -0.013265062 -0.06792532 -0.123481095 -0.044766042 -0.11591174 0.019337172
-0.0023817278 0.031938937 -0.058927532 -0.036256127 -0.012501424 0.005035001 -0.0886157 0.07055635
0.15301022 0.10886805 -0.12270257 0.14458287 -0.0078444285 -0.021454649 0.028547723 -0.105539456
0.15180176 0.03973078 -0.10336853 -0.011374422 -0.10459342 -0.07685761 0.040322788 -0.04874476
-0.11585046 -0.05340193 0.1058203 0.049161185 0.017008007 0.034186643 -0.11534819 0.04244374
0.077097885 0.0030761096 0.078711316 -0.0766235 0.029730884 0.060431298 0.025372494 -0.03221354
-0.03156368 0.03210444 0.14307499 -0.10704184 0.079954416 -0.0014594427 -0.0029825952 0.029800817
-0.044491403 0.05825288 0.064081 -0.07708072 -0.088944875 -0.054473836 0.036665965 -0.046157084
-0.018067127 0.04829952 0.011978643 0.013507614 0.040724944 0.012753179 -0.045999553 -0.036572855
-0.006093539 0.09229403 0.020046726 -0.01236191 0.061999194 -0.11942504 -0.07055169 -0.004893989
-0.06970654 0.009714052 -0.054630116 0.12412328 0.17468482 0.20768322 0.09656675 -0.12299862
0.064918056 -0.1474318 -0.040856283 -0.008939814 0.039891247 0.08204845 -0.009607435 0.036531847
0.035550103 0.08526853 -0.07732422 -0.16179039 0.032782722 0.07438656 0.046041112 0.05207998
0.040634375 0.048502788 -0.09006522 0.051056303 0.059669714 -0.011365977 -0.010074692 0.096432745
-0.055957817 -0.13855885 -0.119566604 -0.03849241 -0.13152996 -0.12142052 -0.12011533 -0.00856472
-0.18453632 0.05575716 0.09209154 0.0034811338 0.060978368 -0.056130446 -0.076872356 -0.1668892
-0.02251956 -0.016584987 0.02630845 0.13302115 -0.00491947 0.039415505 0.08246679 -0.13297339
0.068547554 0.02772034 -0.0010706184 -0.01070841 -0.0004788187 -0.081666216 0.074693926 -0.07411219
0.069407366 0.06297189 -0.051773734 0.08280376 0.10966372 0.03874447 0.015867433 0.094648644
-0.11880529 -0.036862113 0.028546397 -0.059464183 0.07014784 0.03534871 0.056968622 0.1304348
0.048523717 0.094625026 -0.1295518 0.079911776 -0.04146199 -0.11614451 -0.001928558 -0.13578391
00000000: 2dbd a13d 123a 533d 5b42 173d 7b93 64bd
00000010: 715c dcbd 3375 aabc 5484 17bc b7c0 c5bd
00000020: 12c6 1abe fd80 cc3d 604e 89bd 6bcc 853d
00000030: 455d 98bd 4f9c edbd c6d2 34be 1825 b93d
00000040: c990 2c3d 94e4 d53d 4a93 d23c bfeb b5bd
00000050: 1270 a9ba c917 9cbd 5227 ec3d b8a7 3dbd
00000060: 6a37 dfbd 1450 95bc 155a 37bd 8a88 bfba
00000070: 9268 42bd 2fda 87bd c5fe 39bd bd2c f33d
00000080: 9c29 12be 6278 bd3d a4a0 ef3d 273d cd3b
00000090: 4456 9d3a fc0e 3c3d 2963 37bd 4b5e 99bd
000000a0: f8a1 2e3d 3587 b93c 983d 2cbd 1e5d 80bc
000000b0: 9a38 12be e180 d73d dabe fe3c 9ae9 a73d
000000c0: ac1b 3e3d 3ff7 2b3d ba9a b13d 37ee 9b3d
000000d0: 1a0e 063d 8709 10bc 87b9 2fbb b022 23bc
000000e0: c09d b2bc dffd 8dbd 0383 bfbd a069 893d
000000f0: 78a2 08be a71d 883d 5ac5 8d3d f1d3 98bd
00000100: 2f26 14bd 4fe1 703d 02ab 72bc 216c 883d
00000110: 90fb fdbc 17e2 1fbe 4d0a 9e3c 8c39 8ebb
00000120: 08fd 80bd 3b02 8dbd 0f73 8bbb 3318 b0bc
00000130: 3d8a 27bd 3297 0cbd a750 cc3d 2a34 973c
00000140: 51c5 0a3e e229 a4bb 1036 293d ad6e e6bd
00000150: 2666 23bd 0b80 5ebd 8dcb 043c 6bfc 2d3c
00000160: 527a 0fbd 2657 133c b455 59bc 6e1c 8bbd
00000170: a8e3 fcbd 995c 37bd 2263 edbd fd68 9e3c
00000180: c316 1cbb 67d2 023d ff5d 71bd 4e81 14bd
00000190: c6d2 4cbc a6fc a43b 267c b5bd d97f 903d
000001a0: b6ae 1c3e 36f6 de3d 7c4b fbbd 880d 143e
000001b0: eb85 00bc a9c1 afbc eadc e93c 1225 d8bd
000001c0: ec71 1b3e bebc 223d e1b2 d3bd c95b 3abc
000001d0: 1335 d6bd 8667 9dbd 8229 253d 96a8 47bd
000001e0: 0243 edbd fbbb 5abd 50b8 d83d 3d5d 493d
000001f0: 6054 8b3c 4b07 0c3d ac3b ecbd 7dd9 2d3d
00000200: 7fe5 9d3d 8e98 493b 6633 a13d c8ec 9cbd
00000210: 2f8e f33c cf86 773d fad9 cf3c 58f2 03bd
00000220: eb48 01bd f27f 033d 4082 123e c138 dbbd
00000230: 24bf a33d c54a bfba a577 43bb d820 f43c
00000240: 9e3c 36bd 929a 6e3d e63c 833d 7fdc 9dbd
00000250: bb28 b6bd f51f 5fbd 0d2f 163d 360f 3dbd
00000260: 8301 94bc b8d5 453d 1242 443c 0a4f 5d3c
00000270: 33cf 263d b6f2 503c 076a 3cbd 6bcd 15bd
00000280: 4fac c7bb a704 bd3d 0839 a43c 9c89 4abc
00000290: def2 7d3d 1e95 f4bd 687d 90bd c15d a0bb
000002a0: 4dc2 8ebd b027 1f3c d4c3 5fbd 5934 fe3d
000002b0: 94e0 323e e9aa 543e cac4 c53d b3e6 fbbd
000002c0: c2f3 843d 5df8 16be eb58 27bd 4c78 12bc
000002d0: 0165 233d 0509 a83d 8168 1dbc 6ba2 153d
000002e0: fc9c 113d 44a1 ae3d 295c 9ebd 61ac 25be
000002f0: 2d47 063d fb57 983d 9b95 3c3d d151 553d
00000300: 3b70 263d dcaa 463d 1d74 b8bd 6a20 513d
00000310: 3b68 743d 5d38 3abc 5210 25bc 887e c53d
00000320: 0634 65bd 5fe2 0dbe 56df f4bd 38aa 1dbd
00000330: caaf 06be 52ab f8bd 07ff f5bd 0a53 0cbc
00000340: 17f7 3cbe 9f61 643d 7d9a bc3d bc23 643b
00000350: 74c4 793d 0ae9 65bd 416f 9dbd 01e5 2abe
00000360: f17a b8bc 3ddd 87bc d284 d73c b236 083e
00000370: 8133 a1bb 2772 213d 59e4 a83d 2d2a 08be
00000380: a962 8c3d c415 e33c fe53 8cba 5472 2fbc
00000390: f509 fbb9 9e40 a7bd 21f9 983d 22c8 97bd
000003a0: 7325 8e3d 68f7 803d b210 54bd 0595 a93d
000003b0: 5f97 e03d 85b2 1e3d 6bfc 813c 26d7 c13d
000003c0: 3050 f3bd bafc 16bd 22da e93c b790 73bd
000003d0: aca9 8f3d cfc9 103d ee57 693d b390 053e
000003e0: cec0 463d c4ca c13d 3aa9 04be c9a8 a33d
000003f0: 0cd4 29bd 2cdd edbd abc7 fcba f00a 0bbe

weight_hh_l1 f4 [20, 20]
-0.22883408 0.16669191 0.028125562 0.13467383 -0.18990096 -0.030047309 -0.18144448 -0.016967695
-0.038695503 -0.14842252 -0.0891081 0.09775 -0.08813072 -0.14178224 0.04561268 -0.19132538
0.1726701 0.083838284 0.09263957 -0.039350558 -0.00350546 -0.23215567 0.0020152722 0.09834659
-0.06703874 -0.0009515898 -0.099192224 -0.03948992 -0.06391613 -0.13640305 -0.13929209 0.10788659
0.030324334 0.12181283 -0.17682415 -0.062034912 -0.0030745263 -0.09211948 0.16073494 -0.16338874
-0.21421306 -0.037045468 -0.31913078 0.05153614 0.0064582154 -0.03774705 0.046031706 -0.07310534
-0.119365826 -0.07167934 -0.10085748 0.13063659 -0.07922051 0.07231639 -0.00078155287 -0.13270496
0.03919311 0.2589035 0.07306887 0.16038893 0.012586997 -0.16495587 -0.123517916 -0.21938859
-0.0918176 -0.15996017 -0.12855947 -0.029272553 0.012549337 -0.046995234 0.023520373 0.16380246
-0.18746573 -0.16892663 -0.012782375 -0.07648137 -0.10871105 -0.13695067 0.15385768 0.10313442
0.12491145 -0.0071854573 0.21024886 0.24705537 -0.23810324 0.029075468 -0.086038314 0.04509727
-0.1087363 0.12716827 0.118112005 0.1909359 0.20405832 -0.036312517 -0.10788443 -0.13497786
-0.0888944 0.051114585 0.061003845 0.04060507 0.06737017 0.13770531 0.16486159 -0.08347223
-0.199336 -0.1488038 0.15063116 0.099365324 0.15699418 -0.029764391 -0.052549947 -0.03217553
0.01593986 0.06390249 0.00274101 0.12741904 -0.17396389 -0.10243314 -0.10853852 -0.008780215
0.13371848 0.043180745 -0.07690715 -0.038130376 -0.17900544 0.023989774 -0.0372908 0.017990403
0.10869718 -0.1620368 0.095996484 0.040274344 -0.057187296 -0.041325636 0.09587077 0.092143536
-0.24642994 0.1650911 -0.089128934 0.01822098 0.03545839 0.19016393 0.29648858 0.012923304
0.005563976 0.101491876 -0.059178498 -0.3268036 0.035066195 0.08736266 -0.08534355 0.015453614
-0.08479811 0.052589066 0.038303588 -0.23626612 0.13289149 -0.07401491 0.1663134 -0.080294885
-0.029480148 -0.24181157 0.010887377 -0.07959374 0.18607858 -0.05680044 -0.033093918 -0.23257607
0.009305382 0.022349503 0.17177072 -0.05448638 0.27351233 -0.1336953 -0.08397083 -0.024239123
-0.15095833 -0.019954462 0.037383616 -0.032392096 0.045206487 0.010086203 0.07401802 -0.18250331
-0.033365417 -0.032275025 0.023306698 -0.04988826 0.14717539 0.01058435 0.11531356 0.17107183
0.041742172 -0.0056566587 0.119655855 0.050371084 0.10965163 0.12744279 -0.050864466 -0.17190056
0.044088326 0.06862617 0.010750956 0.037517224 -0.19470356 0.12551793 0.020454818 0.044598065
-0.06525948 -0.2588398 -0.08761728 -0.12158976 -0.17658536 -0.20542683 -0.039941486 0.036413297
-0.13974656 -0.06358644 -0.12058091 0.14164868 -0.0057281624 -0.22908224 -0.15176283 0.039901882
-0.102180764 0.022432122 -0.16428375 -0.011571832 -0.20249413 0.00034369135 0.14183618 -0.16997847
-0.086246885 -0.00092292787 -0.04802696 0.067997724 -0.049526043 -0.12215045 0.123213984 0.14250784
0.09490977 -0.04867177 0.0214365 0.21667911 0.1057595 0.19290979 -0.0686474 -0.12878323
-0.09084258 -0.0665743 0.1300942 0.009063956 -0.19685495 -0.2779031 0.039369084 -0.112959415
00000000: 7b53 6abe 49b1 2a3e 9467 e63c f0e7 093e
00000010: 6675 42be c625 f6bc 95cc 39be d6ff 8abc
00000020: 2d7f 1ebd 13fc 17be 4f7e b6bd 2731 c83d
00000030: e17d b4bd 5d2f 11be 5dd4 3a3d cdea 43be
00000040: 6ed0 303e 68b3 ab3d d1b9 bd3d 0d2e 21bd
00000050: dcbb 65bb 37ba 6dbe a812 043b f069 c93d
00000060: 9b4b 89bd 1c74 79ba 4b25 cbbd 2fc0 21bd
00000070: 76e6 82bd 3ead 0bbe 96a2 0ebe a5f3 dc3d
00000080: bd6a f83c 0179 f93d 6411 35be 5218 7ebd
00000090: fe7d 49bb 23a9 bcbd b397 243e 614f 27be
000000a0: ab5a 5bbe fdbc 17bd 1c65 a3be 8f17 533d
000000b0: 709f d33b a79c 1abd be8b 3c3d 41b8 95bd
000000c0: 1276 f4bd 9ecc 92bd 5e8e cebd 99c5 053e
000000d0: 5d3e a2bd 9e1a 943d 20e1 4cba cfe3 07be
000000e0: f488 203d 008f 843e 22a5 953d ff3c 243e
000000f0: b139 4e3c 31ea 28be f6f6 fcbd 67a7 60be
00000100: de0a bcbd 99cc 23be 18a5 03be fecc efbc
00000110: bc9b 4d3c 137e 40bd ccad c03c d5bb 273e
00000120: 04f7 3fbe 1afb 2cbe 2b6d 51bc 44a2 9cbd
00000130: e6a3 debd cc3c 0cbe de8c 1d3e 2438 d33d
00000140: 93d1 ff3d fc73 ebbb 7a4b 573e 15fc 7c3e
00000150: 56d1 73be ad2f ee3c db34 b0bd eab7 383d
00000160: 23b1 debd 6638 023e b5e4 f13d b384 433e
00000170: aaf4 503e 6fbc 14bd 83f2 dcbd a337 0abe
00000180: 440e b6bd 875d 513d 2bdf 793d 8051 263d
00000190: 5ff9 893d 9f02 0d3e 7ad1 283e 7df3 aabd
000001a0: bd1e 4cbe 0660 18be 0e3f 1a3e 0c80 cb3d
000001b0: 15c3 203e 74d4 f3bc 9d3e 57bd 7dca 03bd
000001c0: 4f94 823c 4fdf 823d 84a2 333b 237a 023e
000001d0: 9723 32be 77c8 d1bd 7249 debd e4da 0fbc
000001e0: 7fed 083e 4bde 303d 7f81 9dbd 992e 1cbd
000001f0: 344d 37be 3486 c43c 3dbe 18bd 9c60 933c
00000200: a19c de3d faec 25be ce99 c43d b6f6 243d
00000210: 3a3d 6abd 1245 29bd e557 c43d c0b5 bc3d
00000220: 2158 7cbe a40d 293e 3b89 b6bd 2a44 953c
00000230: d13c 113d 55ba 423e 5acd 973e 44bc 533c
00000240: 0352 b63b f9da cf3d 2765 72bd cd52 a7be
00000250: 92a1 0f3d 32eb b23d 99c8 aebd 2831 7d3c
00000260: a2aa adbd a267 573d 39e4 1c3d bfef 71be
00000270: b514 083e 2195 97bd 0f4e 2a3e a571 a4bd
00000280: 5a80 f1bc 749d 77be f860 323c 0b02 a3bd
00000290: 628b 3e3e 94a7 68bd 7d8d 07bd 6c28 6ebe
000002a0: 9a75 183c 4e16 b73c aae4 2f3e 1c2d 5fbd
000002b0: cf09 8c3e 6ce7 08be e6f8 abbd 2091 c6bc
000002c0: d294 1abe 8a77 a3bc 901f 193d 93ad 04bd
000002d0: 702a 393d 9a40 253c c296 973d 26e2 3abe
000002e0: 2daa 08bd d132 04bd b0ed be3c a257 4cbd
000002f0: 25b5 163e fb69 2d3c 8429 ec3d 742d 2f3e
00000300: d7f9 2a3d 7e5b b9bb 210e f53d e951 4e3d
00000310: 0991 e03d 5d80 023e 4257 50bd b306 30be
00000320: f695 343d e18b 8c3d c724 303c a9ab 193d
00000330: 5f60 47be c687 003e dd90 a73c 76ac 363d
00000340: c3a6 85bd a686 84be b070 b3bd 0d04 f9bd
00000350: cbd2 34be 695b 52be af99 23bd 1c26 153d
00000360: b919 0fbe 9c39 82bd 20f3 f6bd 5a0c 113e
00000370: 4fb3 bbbb 8994 6abe b767 1bbe 2870 233d
00000380: 2644 d1bd 92c3 b73c 003a 28be c897 3dbc
00000390: 9f5a 4fbe 7931 b439 813d 113e d60e 2ebe
000003a0: 35a2 b0bd a4f0 71ba ebb7 44bd 6442 8b3d
000003b0: d2db 4abd 042a fabd 9d57 fc3d 93ed 113e
000003c0: 0e60 c23d 0d5c 47bd 999b af3c 21e1 5d3e
000003d0: 7098 d83d 258a 453e 0297 8cbd c0df 03be
000003e0: ad0b babd 1b58 88bd 6a37 053e fd80 143c
000003f0: 5894 49be 5149 8ebe 7a41 213d 4457 e7bd

bias_ih_l1 f4 [20]
0.06264055 0.107694015 -0.11699282 -0.06841589 0.029410666 0.031241026 0.0094270315 0.10512671
0.02221818 -0.025959712 -0.09087301 -0.04476833 0.10702336 -0.06359575 -0.19329448 0.052135136
0.017507244 0.071635075 0.013958175 -0.0031913326
00000000: b049 803d ae8e dc3d ee99 efbd a11d 8cbd
00000010: a3ee f03c 2eed ff3c d673 1a3c ac4c d73d
00000020: e702 b63c 76a9 d4bc a11b babd ff5e 37bd
00000030: 102f db3d 7d3e 82bd fdee 45be a78b 553d
00000040: 5a6b 8f3c 69b5 923d d4b0 643c ad25 51bb

bias_hh_l1 f4 [20]
0.048610047 -0.090649456 0.14435673 0.13011856 0.07288589 -0.11192059 0.000685967 -0.0792661
0.025813928 0.039829124 0.1442534 0.043671716 -0.060763735 0.09924997 0.17326097 0.03249324
-0.12795825 -0.032789465 -0.017661026 0.026490964
00000000: 541b 473d 6ca6 b9bd 40d2 133e cd3d 053e
00000010: 3345 953d 9f36 e5bd 77d2 333a 4456 a2bd
00000020: bb77 d33c dd23 233d 2ab7 133e 1de1 323d
00000030: 65e3 78bd 9143 cb3d 536b 313e a217 053d
00000040: 7d07 03be 3f4e 06bd dbad 90bc 9403 d93c

weight f4 [30, 20]
-0.32685357 0.09238007 -0.06401333 0.025899878 0.014306442 -0.03587718 -0.022904241 0.12780096
0.17849393 0.124078885 -0.03385157 -0.03596506 0.030577444 0.066719316 0.32673943 -0.08619528
0.15180363 -0.1350842 0.03285396 -0.083295204 0.15694104 -0.098142914 -0.13950776 -0.1253557
-0.020883704 0.230729 -0.17132953 0.04437979 -0.1929326 -0.23939116 -0.08926594 -0.16382232
-0.019679766 0.04387222 -0.13338035 -0.07414664 0.22047794 0.016383342 0.23591211 -0.1790055
-0.17277686 0.10899776 -0.022336567 -0.05655092 -0.093674526 0.17522298 0.044257574 0.14733462
0.086558595 -0.017904736 0.06937129 -0.16551785 0.07129973 -0.07913974 -0.08272086 0.025022143
0.052356724 -0.023537258 0.07158431 -0.12741971 -0.19797291 -0.07066648 -0.08176865 -0.18375522
-0.34338686 0.12443178 0.004021846 0.019264365 -0.17916372 -0.18059145 -0.035005294 0.1972916
0.082638904 0.08578097 0.255543 -0.12348106 -0.02578142 -0.18023488 -0.105131425 0.16125426
-0.107885666 0.046891503 0.01955811 0.23431164 -0.093481936 -0.030817768 0.13470834 0.111572884
-0.047626555 0.16566725 -0.036623947 -0.097702146 0.032200314 0.03499852 -0.01596929 -0.031666517
0.092459545 -0.1223025 0.008653144 0.08266653 -0.007120569 -0.088346116 -0.16807498 0.17091408
0.012447056 0.06389181 -0.051002245 0.034605656 0.14221235 0.049898632 0.017817207 -0.14619592
-0.15237899 -0.122496516 -0.03208969 0.05324484 0.24970919 -0.101743564 0.09375827 -0.11416831
0.20696779 0.10678851 0.10870209 0.05461681 -0.27092993 0.036279317 0.23493841 -0.0069722245
0.04643906 0.11844321 0.17270947 -0.14534923 0.0073013073 0.0433791 0.15824595 0.061935894
0.00028428776 -0.096640006 0.04380978 0.02138477 0.06865614 0.03655668 -0.021809647 -0.11694192
-0.18908763 0.057121124 -0.02070648 0.06503094 -0.094861984 -0.14515904 -0.10924812 0.09383813
-0.06962985 0.04754299 -0.036315594 -0.123803765 0.096271984 -0.026368827 0.08782485 -0.15282592
-0.052351676 0.0040813214 0.1373081 -0.1376879 0.021761084 -0.09262776 0.1295807 -0.09034497
0.19087915 0.07164708 0.056248143 0.13407429 0.017009309 0.10340649 -0.05412602 -0.23828048
-0.029899994 -0.15877937 -0.105988525 -0.10778791 0.069370426 -0.05627378 0.0025911683 0.16434212
0.13901055 0.17458633 0.062071115 -0.16706614 0.0267876 0.10619314 -0.04501062 0.07336783
0.14642735 0.16527696 0.018847648 0.032282244 0.18694519 -0.1712588 -0.16497464 -0.04559741
-0.043144204 0.019656664 -0.01020791 -0.030282473 0.020984566 0.044976648 0.0598814 -0.08478098
0.11327118 0.11487149 0.096526645 -0.011160899 -0.066572666 -0.059724215 0.064889334 -0.04347623
0.039836492 -0.21137704 -0.14564815 -0.0013062836 -0.15373804 0.10029868 0.019378027 0.10058543
-0.15629381 0.07561437 0.036232837 0.07544296 0.10056534 -0.079878055 -0.4435864 -0.078216255
-0.112820856 0.1926815 -0.015325366 -0.022045849 0.106632724 -0.07180787 -0.047043275 0.14092295
-0.18620603 -0.12027018 -0.15817034 0.056395575 -0.095977716 -0.104264714 -0.10081004 0.1883711
-0.014412148 -0.09584401 0.04474252 0.12014929 -0.1352487 0.05046073 -0.033106428 -0.033625577
00000000: 5a59 a7be c331 bd3d 6c19 83bd fb2b d43c
00000010: 9165 6a3c f3f3 12bd ada1 bbbc 41de 023e
00000020: 1dc7 363e 121d fe3d f2a7 0abd 1950 13bd
00000030: 8c7d fa3c 23a4 883d 644a a73e 2787 b0bd
00000040: 6972 1b3e 8353 0abe e091 063d ad96 aabd
00000050: 27b5 203e 27ff c8bd 1fdb 0ebe 3f5d 00be
00000060: 4d14 abbc 3944 6c3e 0271 2fbe 95c7 353d
00000070: 2090 45be f522 75be 10d1 b6bd 0ac1 27be
00000080: 7637 a1bc 5bb3 333d dc94 08be 32da 97bd
00000090: f8c4 613e 5c36 863c f292 713e 384d 37be
000000a0: 6bec 30be 383a df3d 2dfb b6bc f0a1 67bd
000000b0: 6ed8 bfbd a76d 333e 6e47 353d e3de 163e
000000c0: a245 b13d f4ac 92bc 8912 8e3d 837d 29be
000000d0: 9805 923d 0414 a2bd 8e69 a9bd 3dfb cc3c
000000e0: 0174 563d 35d1 c0bc cb9a 923d 507a 02be
000000f0: 69b9 4abe 96b9 90bd 5276 a7bd 542a 3cbe
00000100: 67d0 afbe 17d6 fe3d b1c9 833b 4dd0 9d3c
00000110: b276 37be f7ec 38be b661 0fbd cf06 4a3e
00000120: 963e a93d efad af3d 88d6 823e a3e3 fcbd
00000130: 8e33 d3bc 7e8f 38be 254f d7bd d61f 253e
00000140: 29f3 dcbd 4e11 403d 5438 a03c 64ef 6f3e
00000150: 7573 bfbd 8b75 fcbc fcf0 093e 5380 e43d
00000160: 1014 43bd ada4 293e fe02 16bd 1018 c8bd
00000170: 7ae4 033d 9c5a 0f3d 07d2 82bc c0b4 01bd
00000180: 6e5b bd3d bc79 fabd ebc5 0d3c 124d a93d
00000190: a953 e9bb cfee b4bd d91b 2cbe 1a04 2f3e
000001a0: bdee 4b3c b6d9 823d bbe7 50bd a9be 0d3d
000001b0: 1da0 113e 8262 4c3d 64f5 913c 62b4 15be
000001c0: 3d09 1cbe 74df fabd 7b70 03bd 4317 5a3d
000001d0: c4b3 7f3e ee5e d0bd 5604 c03d 13d1 e9bd
000001e0: 5def 533e efb3 da3d 349f de3d e0b5 5f3d
000001f0: 54b7 8abe 9f99 143d b293 703e 4277 e4bb
00000200: e236 3e3d 5b92 f23d c0da 303e 6ed6 14be
00000210: ce3f ef3b 48ae 313d 3a0b 223e 7eb0 7d3d
00000220: 750c 9539 32eb c5bd e271 333d 1d2f af3c
00000230: 979b 8c3d 75bc 153d 25aa b2bc 3f7f efbd
00000240: 30a0 41be d7f7 693d a3a0 a9bc f12e 853d
00000250: 0047 c2bd 92a4 14be 7abd dfbd 352e c03d
00000260: 189a 8ebd 70bc 423d a9bf 14bd d48c fdbd
00000270: 3f2a c53d 7003 d8bc 84dd b33d 667e 1cbe
00000280: b66e 56bd 9bbc 853b 7f9a 0c3e 0ffe 0cbe
00000290: 4d44 b23c 9fb3 bdbd ceb0 043e c906 b9bd
000002a0: d375 433e b4bb 923d 7464 663d c54a 093e
000002b0: 1b57 8b3c c8c6 d33d 3fb3 5dbd ccff 73be
000002c0: d5f0 f4bc 0f97 22be 8310 d9bd e8bf dcbd
000002d0: 1512 8e3d 567f 66bd 97d0 293b 4d49 283e
000002e0: c858 0e3e c2c6 323e 483e 7e3d 6313 2bbe
000002f0: ab71 db3c ca7b d93d 0e5d 38bd df41 963d
00000300: 0df1 153e 5d3e 293e 6266 9a3c 633a 043d
00000310: 8f6e 3f3e 785e 2fbe 1def 28be 5ac4 3abd
00000320: fab7 30bd 0307 a13c 143f 27bc f312 f8bc
00000330: d3e7 ab3c 6f39 383d 3346 753d a7a1 adbd
00000340: b8fa e73d be41 eb3d c3af c53d 34dc 36bc
00000350: 4057 88bd 61a1 74bd b3e4 843d 2214 32bd
00000360: 972b 233d 3973 58be ca24 15be 9b37 abba
00000370: 816d 1dbe 6569 cd3d abbe 9e3c bcff cd3d
00000380: 7c0b 20be b5db 9a3d e268 143d d781 9a3d
00000390: 33f5 cd3d 1b97 a3bd c21d e3be d82f a0bd
000003a0: 9f0e e7bd 4d4e 453e 3e17 7bbc 7f99 b4bc
000003b0: 4262 da3d 0110 93bd 73b0 40bd 1b4e 103e
000003c0: cbac 3ebe 3650 f6bd 68f7 21be 0cff 663d
000003d0: f78f c4bd bd88 d5bd 7f75 cebd 5be4 403e
000003e0: ee20 6cbc dd49 c4bd ef43 373d d510 f63d
000003f0: a37e 0abe e9af 4e3d 9b9a 07bd f9ba 09bd

bias f4 [30]
-0.11059197 -0.19013217 -0.2713648 0.10076323 -0.14897834 -0.20209374 -0.24523585 -0.18051039
-0.15576884 -0.20072976 -0.1516792 -0.09826369 -0.10184009 -0.16097438 -0.08224884 0.16602543
-0.20852315 -0.22292803 -0.20259684 -0.2265537 -0.036615964 -0.16124977 0.092575915 -0.2076149
-0.14178187 -0.01870911 -0.09411863 -0.09300783 -0.07798865 -0.20916134
00000000: 0b7e e2bd 02b2 42be 54f0 8abe f45c ce3d
00000010: c78d 18be a9f1 4ebe 1b1f 7bbe b7d7 38be
00000020: de81 1fbe 1a8c 4dbe cb51 1bbe 793e c9bd
00000030: 8991 d0bd 78d6 24be 1472 a8bd 9202 2a3e
00000040: 1887 55be 3f47 64be 8c75 4fbe b1fd 67be
00000050: 9ffa 15bd a91e 25be 7198 bd3d 0099 54be
00000060: 442f 11be d943 99bc 45c1 c0bd e47a bebd
00000070: 83b8 9fbd 642e 56be

weight f4 [1, 30]
0.005266608 -0.026777156 -0.001236002 -0.010268911 -0.036633305 -0.024169255 0.054592174 -0.0053638173
-0.049530633 -0.07245296 0.0032274774 -0.033545762 -0.0043398147 -0.055544328 0.010322178 -0.06608631
0.0037449575 -0.0028565421 0.027752642 0.031114915 -0.004270033 0.008883985 0.028977983 -0.0010145173
-0.015736489 0.025985375 0.030217825 -0.016322432 -0.0007787161 -0.06320004
00000000: 8393 ac3b c45b dbbc 5801 a2ba ef3e 28bc
00000010: ce0c 16bd 9afe c5bc 0b9c 5f3d f6c2 afbb
00000020: a2e0 4abd 3862 94bd 1684 533b 4867 09bd
00000030: 0135 8ebb 7382 63bd 5a1e 293c 4258 87bd
00000040: f66d 753b d334 3bbb 8259 e33c b5e4 fe3c
00000050: a2eb 8bbb 228e 113c 3c63 ed3c 8df9 84ba
00000060: cfe9 80bc 48df d43c 5f8b f73c 9fb6 85bc
00000070: c122 4cba 066f 81bd
